iris-flower/my_iris_model.pt (torch, 2631 bytes, 6 tensors)

fc1.weight f4 [8, 4]
0.121202886 -0.4385805 -0.46196023 -0.04377719 -0.3870318 0.07934177 0.14807653 -0.4770878
0.37200072 0.08959421 0.5770315 -0.046947926 0.7633123 0.6490886 -0.44076967 -1.3607496
0.35093284 -0.6458048 0.8175634 0.9495051 0.4722312 0.94461465 -0.7487639 -1.1533263
0.16464484 -0.111353755 -0.42134798 -0.3553493 -0.31912696 0.14395738 -0.3496034 0.22803837
00000000: 3839 f83d a08d e0be 0d86 ecbe b64f 33bd
00000010: 0829 c6be f07d a23d 60a1 173e da44 f4be
00000020: e176 be3e 2b7d b73d 56b8 133f 784c 40bd
00000030: 6f68 433f ac2a 263f 90ac e1be 0b2d aebf
00000040: 78ad b33e 7753 25bf d64b 513f c412 733f
00000050: 4ac8 f13e 44d2 713f feae 3fbf 32a0 93bf
00000060: a898 283e 700d e4bd ecba d7be 58f0 b5be
00000070: 9c64 a3be 9069 133e 38ff b2be e482 693e

fc1.bias f4 [8]
0.18592802 -0.20286602 0.6705641 0.7742338 -0.16367927 0.7040097 -0.31223232 0.3780589
00000000: ea63 3e3e 1cbc 4fbe 17aa 2b3f 3034 463f
00000010: 8a9b 27be fb39 343f eadc 9fbe f090 c13e

fc2.weight f4 [9, 8]
-0.2174119 0.08211541 0.10377281 -0.3532001 -0.4184537 0.10016556 -0.3494075 -0.263886
0.17287816 -0.11852983 0.83472246 -0.0940886 0.56820095 -0.6715609 0.06991243 -0.32654905
-0.35453233 -0.2716259 0.1347616 -0.56682277 0.6431196 -0.777363 0.30476496 -0.21013083
-0.07368596 -0.060686797 0.17709722 -0.04176622 -0.1324304 -0.11844291 -0.30017546 -0.11276427
0.12669133 -0.19118746 0.11752645 -0.73093474 0.80551505 -0.30956337 -0.20340693 0.011390448
-0.019687474 0.06268561 -0.22976097 -0.22057456 -0.051930577 -0.2718181 0.03937459 -0.1807519
-0.25719464 -0.017445713 0.31908333 0.07613671 0.792597 -0.57776594 -0.11047746 -0.062431544
-0.12987092 -0.34292972 0.62724024 0.5161833 -0.18595205 0.91574067 -0.35234165 0.31245807
-0.337548 -0.20817648 0.12271698 -0.1602973 -0.17696401 -0.31101653 0.10800251 0.2850211
00000000: 3aa1 5ebe 202c a83d d786 d43d a5d6 b4be
00000010: 903f d6be 9a23 cd3d 8ae5 b2be 111c 87be
00000020: f906 313e c4bf f2bd 5fb0 553f 86b1 c0bd
00000030: 9e75 113f 6aeb 2bbf 402e 8f3d 7031 a7be
00000040: 4385 b5be 8d12 8bbe f2fe 093e 4c1b 11bf
00000050: 7ca3 243f 4301 47bf 270a 9c3e 892c 57be
00000060: aae8 96bd b892 78bd f958 353e 0e13 2bbd
00000070: d69b 07be 3292 f2bd 99b0 99be f4f0 e6bd
00000080: 5fbb 013e a5c6 43be b5b1 f03d 8a1e 3bbf
00000090: 3c36 4e3f 177f 9ebe e849 50be 009f 3a3c
000000a0: a047 a1bc 5061 803d 7646 6bbe 4cde 61be
000000b0: 28b5 54bd be2b 8bbe 4047 213d 0717 39be
000000c0: 04af 83be 50ea 8ebc e45e a33e 90ed 9b3d
000000d0: a3e7 4a3f 78e8 13bf 0242 e2bd 38b8 7fbd
000000e0: e2fc 04be 7c94 afbe d192 203f 9724 043f
000000f0: 376a 3ebe fb6d 6a3f 2066 b4be 81fa 9f3e
00000100: 17d3 acbe 372c 55be 0a53 fb3d fa24 24be
00000110: 0e36 35be 8f3d 9fbe 6c30 dd3d 49ee 913e

fc2.bias f4 [9]
0.018041652 0.5100829 -0.6752716 -0.44346103 -0.568404 -0.035856277 0.016096804 0.47855487
-0.028703528
00000000: 16cc 933c cb94 023f 99de 2cbf 530d e3be
00000010: ed82 11bf 08de 12bd 72dd 833c 2505 f53e
00000020: a923 ebbc

out.weight f4 [3, 9]
-0.13876617 -0.52687675 -0.15695532 -0.037399612 -0.7366632 0.22666267 -0.5421034 0.6343712
0.29022127 0.09919235 0.50846833 -0.95212525 -0.13457692 -0.5924552 0.27184823 0.37713745
0.09059368 0.20540495 -0.1934482 0.24978256 0.6316767 -0.037280798 0.69539005 -0.32192153
0.77148205 -1.0043849 -0.08777579
00000000: b818 0ebe 65e1 06bf e5b8 20be 5630 19bd
00000010: f695 3cbf 421a 683e 4ac7 0abf 2766 223f
00000020: e297 943e 5c25 cb3d fb2a 023f 7bbe 73bf
00000030: 88ce 09be 25ab 17bf b12f 8b3e 2918 c13e
00000040: 2e89 b93d ad55 523e 4917 46be 00c7 7f3e
00000050: 90b5 213f c0b3 18bd 1505 323f e6d2 a4be
00000060: d97f 453f af8f 80bf cbc3 b3bd

out.bias f4 [3]
0.57179016 -0.27666742 -0.6040026
00000000: d760 123f 5aa7 8dbe ea9f 1abf
