taxi-cab/taxiModel.pt (torch, 113041 bytes, 20 tensors)

embeds.0.weight f4 [24, 12]
0	0x3ede8877	0.4346349
1	0xbe076b30	-0.13224483
2	0xbf0a7e81	-0.5409928
3	0x3f1bd026	0.60864484
4	0x3f4061f4	0.75149465
5	0xbf0ab997	-0.5418944
6	0x3fb25f0c	1.3935256
7	0x3df456af	0.11930596
8	0xbf9a3cb5	-1.2049776
9	0x3f9d3a4d	1.2283417
10	0x3ed1896a	0.4092515
11	0xbe5121ae	-0.20423004
12	0x3a130dc6	0.00056096574
13	0xbfb009cc	-1.375299
14	0x3e00a48d	0.12562771
15	0x3f2eb594	0.68245816
16	0xbf119712	-0.5687114
17	0xbfaa3e06	-1.3300178
18	0x3f8d01a5	1.1016127
19	0xbf207a4a	-0.626866
20	0x3e377b4f	0.17918132
21	0x3f99e08b	1.202165
22	0xbf1d2158	-0.61379004
23	0x3f0c0527	0.5469536
24	0x3e9ba729	0.3040097
25	0xbf91b92d	-1.1384636
26	0xbeefc7bf	-0.46832082
27	0x3eb575e2	0.354415
28	0xbe60ad79	-0.21941175
29	0xbf30eeea	-0.69114554
30	0xbfaab84c	-1.3337493
31	0xbf84e46a	-1.0382206
32	0xbf6496e2	-0.8929273
33	0x3e9fd984	0.3122064
34	0xbf69a37e	-0.91265094
35	0x3f33b3f8	0.70196486
36	0xbf90272d	-1.1261955
37	0xbeac1aab	-0.33614096
38	0xbf86ee12	-1.0541403
39	0x3fafc5cd	1.3732239
40	0xbea328bb	-0.31867012
41	0x3e9560eb	0.29175505
42	0x3eea3bdb	0.4574879
43	0x3f52224d	0.8208359
44	0x3f14d210	0.5813303
45	0x3dc68ace	0.09694444
46	0x3e084e68	0.1331116
47	0xbe2aaf40	-0.16668415
48	0xbf81c3fd	-1.0137936
49	0xbf604f29	-0.8762079
50	0x3fb50ebf	1.4145125
51	0xbfa50e8c	-1.2895064
52	0xbea80a14	-0.3282019
53	0xbfbe0005	-1.4843756
54	0xbec7783e	-0.38958925
55	0x3f926004	1.1435552
56	0x3cc53a32	0.024075601
57	0xbf23031d	-0.63676625
58	0x3f429e14	0.7602246
59	0x3ef273cf	0.4735398
60	0x3e8e5225	0.27797046
61	0xbe564e0c	-0.2092821
62	0x3f368f5e	0.7131251
63	0xc026332a	-2.5968728
64	0xbe5c070f	-0.21487068
65	0xc0106482	-2.2561345
66	0xbfddc45c	-1.7325549
67	0x3c877f28	0.016540125
68	0xbf87c748	-1.0607691
69	0x3f27c0aa	0.6552836
70	0x3e6e566b	0.23275153
71	0x3f45d36f	0.7727575
72	0x3e7a9586	0.24471101
73	0x3f8b1c4e	1.0868013
74	0x3f1f5426	0.62237775
75	0xbf180d8f	-0.5939569
76	0xbf124628	-0.571383
77	0xbf219b02	-0.6312715
78	0x3f11ee1a	0.5700394
79	0xbe093ea2	-0.13402799
80	0x3fc5058b	1.5392317
81	0xbfa44514	-1.2833581
82	0xbd8f9b1b	-0.07012006
83	0x3f9a26c4	1.204308
84	0x3fe01205	1.7505499
85	0xbdc5b90d	-0.09654436
86	0x3dc11af6	0.094289705
87	0xbf8fe529	-1.1241809
88	0xbf3e3101	-0.74293524
89	0x3d6b678a	0.05747179
90	0x3f20b31c	0.627733
91	0xbf9aed84	-1.2103734
92	0xbf147c23	-0.5800192
93	0xbf771cf1	-0.96528536
94	0xbed57cf8	-0.41696906
95	0xbf8e71e9	-1.1128513
96	0xbf1f1c36	-0.6215242
97	0xbf69cd20	-0.9132862
98	0x4029c6a3	2.6527488
99	0x3faf3a88	1.3689737
100	0x3c89585a	0.016765762
101	0xbf228095	-0.6347745
102	0xbefce962	-0.49396807
103	0x3e54e86d	0.20791788
104	0x3f076b8b	0.5289847
105	0x3fa1cc88	1.2640543
106	0x3efcc585	0.49369445
107	0xbf175a55	-0.5912221
108	0x3f843e66	1.0331542
109	0x3dda8a8c	0.10670957
110	0x3f93d8ab	1.1550497
111	0xbd8db4e0	-0.06919265
112	0xbf9dd03d	-1.2329174
113	0x3f180a41	0.59390646
114	0xbe91519e	-0.2838258
115	0xbf87c85c	-1.060802
116	0x3f6a1169	0.91432816
117	0x3fc03be7	1.5018281
118	0xbfa7aefc	-1.3100276
119	0x3e2f5766	0.17123184
120	0xbea18cbd	-0.31552687
121	0x3fc52e7f	1.5404814
122	0xbeb44426	-0.35208243
123	0xbe87ea41	-0.2654591
124	0x3f0d112d	0.55104333
125	0xbf544e03	-0.82931536
126	0xbf6c542d	-0.9231594
127	0x3f36c044	0.71387124
128	0x3f0da2e4	0.55326676
129	0xbf0eb098	-0.5573821
130	0xbfe1d64f	-1.7643527
131	0xbf12f210	-0.5740061
132	0x3ebaa114	0.36451018
133	0x3f5e0efd	0.8674162
134	0xbf438756	-0.7637838
135	0x3fea1568	1.8287783
136	0x3f4e1b4f	0.8051042
137	0x3f7d9aee	0.9906453
138	0x3f678bc2	0.9044763
139	0xbf7a62ca	-0.9780699
140	0xbfa51870	-1.2898083
141	0xbffefbad	-1.9920555
142	0xbd356b14	-0.04429157
143	0xbf1b9a89	-0.60782677
144	0xbfb7068c	-1.4298873
145	0xbe32db35	-0.17466433
146	0x3f5d966c	0.8655765
147	0x3f5fd15a	0.8742882
148	0xbd1ddebe	-0.0385425
149	0x3f8dcf22	1.1078837
150	0xbf7ac768	-0.9796052
151	0x400f150c	2.2356596
152	0xbe70d1f7	-0.23517595
153	0x3ec22219	0.3791664
154	0x3fa54e84	1.2914586
155	0xbfb4d0a1	-1.4126168
156	0x3fe1c107	1.7637032
157	0x3eacb9ac	0.33735406
158	0xbf3317e2	-0.6995832
159	0xbf6ee1a3	-0.93313044
160	0xbf67dc90	-0.90570927
161	0xbdf5a805	-0.11994938
162	0x3e386233	0.1800621
163	0x3ed83fac	0.42236078
164	0xbdf884fb	-0.12134739
165	0xbc3f618b	-0.011680971
166	0xbfd47f32	-1.6601317
167	0xbfccdb77	-1.6004475
168	0x3e593065	0.21209867
169	0xbfb2209f	-1.3916205
170	0x3f88a12d	1.0674187
171	0x3f737fca	0.95116866
172	0xbfdcd5d9	-1.7252761
173	0xbc078ecb	-0.008273791
174	0x3faf7c83	1.3709873
175	0xbe9ce2d8	-0.30641818
176	0xbf8f8a40	-1.1214066
177	0x3ecffed7	0.40624115
178	0x3f8f9587	1.1217507
179	0xbf581727	-0.8441033
180	0xbd3f301f	-0.04667675
181	0xbe3ffeb5	-0.18749507
182	0x3cf8ee85	0.030387172
183	0x3dd99c5b	0.106255256
184	0x3f5b077f	0.85558313
185	0x3f7c82f5	0.98637325
186	0xbd89761b	-0.0671198
187	0xbff5903d	-1.9184643
188	0x3e5198cd	0.20468445
189	0xbf53b297	-0.8269438
190	0xbfd172c4	-1.6363149
191	0xbf46162e	-0.77377594
192	0xbfb5762f	-1.4176692
193	0xbfb2c08d	-1.3965012
194	0xbf00ed9b	-0.5036256
195	0xbfb28734	-1.3947511
196	0xbf751da6	-0.95748365
197	0x3d57198a	0.05251459
198	0x3f9aa160	1.2080498
199	0x3fdc990f	1.723421
200	0xbcacbb01	-0.021085264
201	0x3e6b43dd	0.22975107
202	0xbedb57a5	-0.42840305
203	0xbebecd2b	-0.37265906
204	0xbedd631f	-0.43239686
205	0xc0066361	-2.0998156
206	0xbf734886	-0.95032537
207	0xbfa040b5	-1.2519747
208	0x3e3d5675	0.18490012
209	0x3ecd099c	0.40046394
210	0xbfca931a	-1.5826142
211	0xbe176ccf	-0.14787601
212	0xbf41bcd7	-0.7567877
213	0xbed871ed	-0.42274418
214	0xbeacd31e	-0.3375482
215	0x3fa0eadc	1.2571673
216	0xbfd95e17	-1.6981839
217	0xbf475441	-0.77862936
218	0xbf03ed75	-0.51534206
219	0xbf811833	-1.008551
220	0x3f4cd4e5	0.8001235
221	0xbeb482bb	-0.3525599
222	0x3efd4112	0.49463707
223	0xbd0f26f9	-0.034949277
224	0xbf81bd14	-1.0135827
225	0x3e05d58f	0.13069747
226	0xbf8d712b	-1.1050161
227	0xbf75aee3	-0.9596998
228	0xbfc37279	-1.5269309
229	0x3ea62136	0.32447213
230	0xbf6d2b21	-0.92643934
231	0xbe86f626	-0.2635967
232	0x3ec2a860	0.38019085
233	0x3dd0aa1b	0.10188695
234	0x3ffeb759	1.9899703
235	0xbe67c017	-0.2263187
236	0x3fae042a	1.3595021
237	0xbee5f22d	-0.44911328
238	0xbd049110	-0.032364905
239	0x3f9e6ae7	1.2376374
240	0xbfeced2b	-1.8509878
241	0xbf17f87c	-0.5936353
242	0xbd80219d	-0.06256411
243	0xbf172330	-0.59038067
244	0xbe62e74f	-0.2215855
245	0xbcb23f3e	-0.021758672
246	0xbf098a0c	-0.5372627
247	0xc02431ac	-2.5655317
248	0x3eed4049	0.46338108
249	0x3f121d4c	0.57075953
250	0xbf5c22ba	-0.8599049
251	0x3f7b12e2	0.9807569
252	0xbf9fe837	-1.2492741
253	0xbe7b7835	-0.24557574
254	0xbf96a5a9	-1.1769305
255	0xbea663ed	-0.32498112

embeds.1.weight f4 [2, 1]
0	0xbe1246b4	-0.14284784
1	0x3e8deb2c	0.27718484

embeds.2.weight f4 [7, 4]
0	0x3e6bd9d5	0.23032315
1	0x3e970f75	0.2950398
2	0x3f52e889	0.8238607
3	0xbfe29dfb	-1.7704462
4	0x3ed8741b	0.4227608
5	0xbf3a1f31	-0.72703844
6	0x3f94c304	1.1622014
7	0x3ec8e753	0.39238986
8	0x3fc38e0e	1.5277727
9	0xbfaccc98	-1.3499937
10	0xbfbc56ce	-1.4713991
11	0x3ee22c23	0.441743
12	0x3f2850fb	0.65748566
13	0xbe8e0783	-0.27740106
14	0xbffec403	-1.9903568
15	0xbfd25c88	-1.6434488
16	0xbf0adf42	-0.54246914
17	0xbebb755e	-0.36612982
18	0x3fcbae32	1.5912535
19	0x3f0dfe8f	0.5546655
20	0x3fcb8b4d	1.5901886
21	0xbf04f332	-0.51933587
22	0xbfa07692	-1.2536185
23	0xbeb5e930	-0.3552947
24	0x3f40e315	0.753465
25	0xbf48f79c	-0.7850282
26	0xbf10f6ed	-0.5662678
27	0x3e02fc70	0.1279161

bn_cont.weight f4 [6]
0	0x3f8b705e	1.0893667
1	0x3f800591	1.0001699
2	0x3f909e7f	1.1298369
3	0x3f7f9879	0.9984203
4	0x3f57c3ba	0.8428303
5	0x3f8e766b	1.1129888

bn_cont.bias f4 [6]
0	0xbdfdad71	-0.12386597
1	0x3d9f9b96	0.077933475
2	0xbcaf127c	-0.021371119
3	0x3d6a2cc5	0.0571716
4	0xbe1b0d87	-0.15141879
5	0xbe331021	-0.17486621

bn_cont.running_mean f4 [6]
0	0xc293f6f4	-73.98233
1	0x422300ea	40.750893
2	0xc293f5fc	-73.98044
3	0x4223013d	40.75121
4	0x3fac7a9f	1.3474921
5	0x40540ce8	3.3132877

bn_cont.running_var f4 [6]
0	0x3a8a00a7	0.0010528759
1	0x3a2da7f3	0.00066244527
2	0x3a90a798	0.0011036275
3	0x3a6fd92c	0.00091494876
4	0x3f12f884	0.57410455
5	0x41305b50	11.022293

layers.0.weight f4 [200, 23]
0	0xbcb7bd65	-0.022429178
1	0xbcc6c008	-0.02426149
2	0x3c1756ed	0.009237033
3	0x3c4949fe	0.0122857075
4	0x3b9ec25d	0.0048449473
5	0xbc8b5cbb	-0.01701199
6	0xbb862350	-0.004093565
7	0xbd07b752	-0.033133812
8	0xbbc1e2f1	-0.005916946
9	0xbcc945e2	-0.024569456
10	0xbd42ce4f	-0.047560032
11	0x3be2f1fd	0.00692582
12	0x3db387ab	0.08766111
13	0xbbc85193	-0.00611324
14	0xbda92443	-0.082588695
15	0x3c81130a	0.015756149
16	0xbd310537	-0.043217864
17	0x3d922e1c	0.07137701
18	0x3d87edc6	0.066371486
19	0x3d7a69d2	0.061136074
20	0xbe415ed2	-0.18883827
21	0xbc853b4a	-0.016263623
22	0xbe8c4250	-0.27394342
23	0xbdceddc5	-0.10100893
24	0x3e087a2f	0.1332786
25	0xbd6bee84	-0.057600513
26	0x3e3b4551	0.18288161
27	0x3d9df012	0.077118054
28	0x3d56b3d9	0.05241761
29	0x3b0f6edd	0.0021886148
30	0x3dd04aec	0.1017054
31	0x3e22ded2	0.15905312
32	0xbcdfd893	-0.02732495
33	0xbe18128c	-0.14850825
34	0xbe008061	-0.12548973
35	0xbe758b39	-0.2397889
36	0x3d8c941d	0.06864188
37	0xbda122df	-0.07867979
38	0x3d4b1593	0.04958112
39	0x3d16169e	0.036642663
40	0xbd635c18	-0.05550775
41	0x3d8415a6	0.064494416
42	0x3d843671	0.064556964
43	0xbccf919f	-0.025337992
44	0x3d89c7cc	0.06727561
45	0x3e6bfc71	0.23045518
46	0xbdb44bb5	-0.088035025
47	0xbcdea05a	-0.027176071
48	0x3cb0490a	0.021519203
49	0xbd249f00	-0.040190697
50	0xbd88936b	-0.06668743
51	0x3cf76170	0.030197829
52	0xbd62c1e4	-0.05536069
53	0x3d2077d7	0.03917679
54	0x3cb53207	0.022118581
55	0xbc451cd1	-0.012030796
56	0x3ca1313a	0.019676793
57	0xbdb31d4c	-0.08745822
58	0xbdf65fcf	-0.12029993
59	0x3c8e3753	0.017360365
60	0xbda37efd	-0.079832055
61	0x3d3021dc	0.04300104
62	0x3d3ed80b	0.046592753
63	0x3d240efb	0.04005335
64	0xbd3c4679	-0.045965645
65	0x3d3b56d0	0.045737088
66	0x3cb50be0	0.022100389
67	0xbc6b654a	-0.014367411
68	0x3e464965	0.19363935
69	0xbe55c580	-0.20876122
70	0x3da9f3ff	0.08298492
71	0x3d5f87b0	0.05457276
72	0x3e0dbf57	0.13842522
73	0xbdb01d8e	-0.08599387
74	0xbe610d15	-0.21977647
75	0xbe341447	-0.1758586
76	0x3d42c428	0.04755035
77	0xbc7b7695	-0.015348096
78	0xbe09b0f8	-0.13446414
79	0x3cc82bc1	0.024434926
80	0x3d9cb939	0.07652516
81	0xbcf2152a	-0.029551107
82	0xbdc17286	-0.09445672
83	0x3dfb4613	0.12269225
84	0xbe2baaf6	-0.16764435
85	0x3e0a0d03	0.13481526
86	0x3e0cd7f1	0.1375425
87	0xbd767f4d	-0.060179997
88	0xbe0e8952	-0.13919571
89	0xbd815bc3	-0.0631633
90	0x3dd1b126	0.102388665
91	0xbe3fbeac	-0.1872508
92	0xbb8d1de9	-0.004306544
93	0xbbb1301a	-0.0054073455
94	0x3bc42b7d	0.0059866295
95	0x3c4d024b	0.012512754
96	0xbd319aca	-0.04336051
97	0xbcf0594a	-0.029339451
98	0xbc64be7b	-0.01396143
99	0x3ccc08aa	0.024906475
100	0x3cc1400f	0.023590116
101	0x3c8db402	0.017297748
102	0xbd098ea3	-0.033583295
103	0x3c143763	0.009046408
104	0x3c1b854e	0.0094922315
105	0x3c531ee6	0.012885785
106	0xbcb8b435	-0.022546867
107	0x3bf2e3c9	0.007412408
108	0xbc6be4c0	-0.0143978
109	0x3e423720	0.18966341
110	0xbdd54ced	-0.10415063
111	0xbe1cd4d4	-0.15315562
112	0x3d196231	0.03744716
113	0xbb7a2947	-0.0038171576
114	0x3e599805	0.21249397
115	0x3c1264a2	0.008935126
116	0xbdc6070f	-0.09669315
117	0x3e035198	0.12824094
118	0xbd762b1d	-0.06009971
119	0x3e4f3d59	0.20238246
120	0xbd98d3bd	-0.07462261
121	0x3e1d1401	0.15339662
122	0x3c24f11d	0.0100672515
123	0x3d723b38	0.059138507
124	0xbe37659c	-0.17909855
125	0xbe23031a	-0.15919152
126	0xbe132986	-0.14371309
127	0xbd57618e	-0.05258327
128	0x3cf6b17b	0.030113926
129	0xbd69c8d1	-0.05707628
130	0xbd43d28b	-0.04780821
131	0x3dfad7e4	0.12248209
132	0xbe42af7a	-0.19012251
133	0xbe1c1f9d	-0.15246435
134	0xbdcaeab4	-0.09908047
135	0x3e2adfd0	0.1668694
136	0xbe43114b	-0.19049565
137	0xbd752abe	-0.059855215
138	0xbb8ccdfb	-0.0042970157
139	0x3d0a96bb	0.033835154
140	0xbc053492	-0.0081302095
141	0x3c3217eb	0.01086996
142	0x3c9bf1a2	0.019036118
143	0x3ba4a456	0.005024473
144	0xbd7dfea9	-0.06201044
145	0x3c655374	0.013996948
146	0xbd8e9449	-0.06961877
147	0xbc80d0f7	-0.015724642
148	0x3d18fe19	0.0373517
149	0xbd9235b2	-0.07139148
150	0xbe292671	-0.1651857
151	0xbbf39ef4	-0.00743472
152	0xbdb0b091	-0.08627427
153	0xbb9b4919	-0.0047389385
154	0x3d8979d1	0.06712688
155	0x3d15ae53	0.0365432
156	0xbd48f0ed	-0.04905789
157	0xbc6308b7	-0.013857058
158	0x3e125b78	0.14292705
159	0xbddc8173	-0.10766878
160	0xbea93091	-0.33044866
161	0x3dd10096	0.1020519
162	0xbcb21f92	-0.02174357
163	0x3dd6cbc9	0.10488088
164	0xbdd0ff96	-0.10204999
165	0x3ca3809b	0.019958785
166	0x3d57b9a9	0.052667294
167	0x3d4b3197	0.04960784
168	0xbdc2c300	-0.095098495
169	0xbc0c3b94	-0.008559126
170	0xbe2b000d	-0.16699238
171	0x3dd8c8d0	0.10585177
172	0x3d4e030a	0.050295867
173	0xbe1cee86	-0.15325364
174	0xbd781d4f	-0.060574826
175	0x3e1b5c30	0.15171885
176	0x3d02fc31	0.03197879
177	0xbe2ea0bc	-0.17053503
178	0x3e7e93c1	0.24861051
179	0xbe4a117f	-0.19733237
180	0xbe05d5a8	-0.13069785
181	0xbd90e183	-0.07074263
182	0xbc742ea1	-0.014903695
183	0xbac1a372	-0.0014773442
184	0xbdf2c789	-0.118544646
185	0x3d51414b	0.05108766
186	0xbd218790	-0.039435923
187	0xbdcc4bd5	-0.09975401
188	0x3e2d75b1	0.16939427
189	0xbe09dee8	-0.13463938
190	0x3c6866c8	0.014184661
191	0x3e0b98be	0.13632485
192	0x3e0974bd	0.13423438
193	0xbe1810ce	-0.1485016
194	0xbca14367	-0.01968546
195	0xbd420a95	-0.047373373
196	0x3e03b7b2	0.12863043
197	0xbe0caf2f	-0.13738702
198	0xbdd020d0	-0.101625085
199	0x3e835980	0.2565422
200	0x3d686a26	0.056741856
201	0xbe23088d	-0.1592123
202	0xbc9cce76	-0.019141417
203	0xbda7731d	-0.08176253
204	0x3c46f8f0	0.012144312
205	0x3e6a9209	0.2290727
206	0xbd56abf2	-0.052410074
207	0x3db8ab00	0.09016991
208	0xbbc3f7ce	-0.0059804684
209	0x3de0a404	0.109687835
210	0xbd1f7954	-0.038934067
211	0xbd0f62b4	-0.03500624
212	0x3d6b2a1d	0.05741321
213	0x3d02c16d	0.031922746
214	0x3a9f6613	0.0012161158
215	0xbd9e5022	-0.07730128
216	0xbd13e5e2	-0.036107905
217	0xbc40c6fc	-0.011766192
218	0x3d467ae3	0.048457038
219	0x3d99c0d7	0.075074844
220	0xbdcd8583	-0.10035231
221	0xbdf460d0	-0.11932528
222	0x3d62d9a6	0.055383347
223	0xbd337afe	-0.043818466
224	0x3e2f1393	0.1709731
225	0xbe0e8c20	-0.13920641
226	0x3ae8d972	0.0017764999
227	0xbbd69b69	-0.006549288
228	0x3d12f53a	0.035878398
229	0x3e61a91e	0.2203717
230	0x3dc5bec1	0.09655524
231	0xbabf9d61	-0.0014619046
232	0x3e0940c0	0.13403606
233	0xbe2a1e73	-0.16613178
234	0x3e2dc3b7	0.1696919
235	0xbe035eff	-0.12829207
236	0xbd116ca8	-0.035504013
237	0xbd584416	-0.052799307
238	0x3dd0aa3a	0.10188718
239	0xbe19cca0	-0.15019464
240	0xbdd847dd	-0.10560582
241	0xbd9b4881	-0.075821884
242	0x3d8cca63	0.0687454
243	0x3de118f7	0.1099109
244	0xba5053b0	-0.0007947041
245	0x3cdabe25	0.026701996
246	0x3e0201b8	0.12695968
247	0xbce3f475	-0.027826527
248	0x3e72b845	0.23703106
249	0x3e3ef72d	0.18648978
250	0xbd09d700	-0.033652306
251	0x3daaabe7	0.08333569
252	0x3e5aaeb5	0.21355708
253	0xbba91241	-0.0051596467
254	0xba7d9aa8	-0.00096742297
255	0x3db26e38	0.08712429

layers.0.bias f4 [200]
0	0x3e8ca3de	0.2746877
1	0xbe3ba476	-0.18324456
2	0xbd94dec4	-0.07269052
3	0xbd0e7aa6	-0.034784935
4	0x3d54a969	0.051919375
5	0xbd592745	-0.053015966
6	0x3d648ad8	0.055796474
7	0xbd116a59	-0.03550181
8	0xbd2457c9	-0.04012278
9	0x3b90f00e	0.004423148
10	0x3d9e8a5e	0.07741235
11	0xbda7b827	-0.08189421
12	0x3e07675d	0.13223024
13	0xbd8158f1	-0.06315792
14	0xbd853399	-0.06503982
15	0x3e45901b	0.19293253
16	0xbc803fca	-0.015655417
17	0x3e7b8878	0.24563777
18	0x3da623cc	0.081122965
19	0x3d3cddc1	0.04610992
20	0x3e4856cb	0.19564359
21	0x3d8b95c1	0.06815673
22	0xbe3f2a77	-0.18668543
23	0xbd8f3811	-0.06993116
24	0xbe278bb7	-0.1636189
25	0x3e3db820	0.1852727
26	0x3e897b97	0.26852104
27	0xbea326f1	-0.31865647
28	0x3cc29b69	0.023755746
29	0x3e1265c0	0.14296627
30	0xbc7ca1d8	-0.015419446
31	0x3bf258f0	0.007395856
32	0x3e10f7c0	0.14157009
33	0xbd352810	-0.04422766
34	0x3da6a8af	0.081376426
35	0x3c153859	0.009107673
36	0x3da8e2c4	0.08246377
37	0xbdabec90	-0.0839473
38	0x3df946fb	0.121717416
39	0xbe2c5a5d	-0.16831346
40	0xbdb5b379	-0.08872122
41	0x3de6327f	0.112401
42	0xbe2b4828	-0.16726744
43	0x3e4989bd	0.19681449
44	0x3e098c76	0.13432488
45	0xbd8ce866	-0.06880264
46	0xbe772eea	-0.2413899
47	0xbde54f73	-0.11196794
48	0x3de6e894	0.112748295
49	0x3e9ed393	0.31020793
50	0xbd932a30	-0.07185781
51	0xbcf00bda	-0.029302526
52	0xbdf66cb5	-0.12032453
53	0x3e066a86	0.13126573
54	0x3e844384	0.2583276
55	0xbe889d95	-0.26682726
56	0xbcc6bd21	-0.024260106
57	0xbc94d878	-0.018169627
58	0xbdcde7fa	-0.10054012
59	0x3e1163c7	0.14198218
60	0x3e18fa2e	0.14939186
61	0x39cdad89	0.0003922994
62	0xbe0a471a	-0.13503686
63	0x3dc27e64	0.09496763
64	0x3e2d73aa	0.16938654
65	0xbe45dc0d	-0.19322224
66	0x3e091c6d	0.1338975
67	0xbe35599c	-0.17709965
68	0x3e5e213c	0.21692365
69	0xbe22a946	-0.15884885
70	0x3d99c477	0.07508176
71	0xbe829fa3	-0.25512418
72	0x3cc8c469	0.024507718
73	0xbd9a0a68	-0.07521516
74	0xbe4c9167	-0.19977342
75	0x3e434c44	0.19072062
76	0xbdd0fa8c	-0.10204038
77	0xbe0d88cd	-0.13821717
78	0x3e053af2	0.13010767
79	0x3e3b9fc5	0.18322666
80	0x3d56d635	0.052450377
81	0xbd085ffe	-0.03329467
82	0x3db56be6	0.088584706
83	0xbd57e9d3	-0.052713227
84	0x3d8a9632	0.06766929
85	0xbd5a061d	-0.053228486
86	0x3b8fc46a	0.004387428
87	0xbd415f4d	-0.047210027
88	0xbde7a33b	-0.113104306
89	0x3e9b7d80	0.30369186
90	0x3ca6d19b	0.02036362
91	0xbe19c890	-0.15017915
92	0x3e29bd42	0.16576102
93	0xbd822867	-0.063553624
94	0x3d9ae11b	0.07562467
95	0x3b760756	0.0037540994
96	0x3e995ba9	0.29952744
97	0xbcc3f40f	-0.023920087
98	0x3e054a55	0.13016637
99	0xbe16dbd9	-0.14732303
100	0x3d415cf6	0.047207795
101	0x3dd1356c	0.102152675
102	0x3e3655f3	0.17806225
103	0xba4e7118	-0.00078751286
104	0x3df54716	0.11976449
105	0x3cce2675	0.025164822
106	0x3e8ea83e	0.27862734
107	0x3ddb2f78	0.10702413
108	0xbdae670b	-0.08515748
109	0x3c12f66f	0.008969887
110	0x3e5022b1	0.20325734
111	0x3d98f07f	0.07467746
112	0x3d3ec2bd	0.046572436
113	0xbc1b9841	-0.009496749
114	0x3e5f102e	0.21783516
115	0x3d37b731	0.04485244
116	0xbc455284	-0.012043599
117	0x3d3f455a	0.046697
118	0xbc65a7f2	-0.014017092
119	0xbdba370f	-0.09092533
120	0xbd090f15	-0.03346165
121	0xbd157e38	-0.036497325
122	0xbe694654	-0.22780734
123	0x3ce82053	0.028335726
124	0x3db51074	0.08841029
125	0xbe94a80f	-0.2903447
126	0xbd678920	-0.056527257
127	0x3d84920d	0.064731695
128	0xbbdb1e12	-0.0066869343
129	0x3e3c185a	0.18368664
130	0x3e12e8d6	0.14346632
131	0x3cdfc67b	0.027316323
132	0x3e1d5254	0.15363437
133	0x3d88e1b8	0.066836774
134	0xbdbee162	-0.09320332
135	0x3e9a7446	0.30166835
136	0x3d70d899	0.058800314
137	0xbe397c7b	-0.18113892
138	0x3ead0aa1	0.33797172
139	0xbcb2992f	-0.02180156
140	0x3eae965e	0.34099096
141	0xbd94d8e6	-0.072679326
142	0xbd5aa796	-0.05338248
143	0x3e6f8e3c	0.23394102
144	0xbda4d902	-0.080492035
145	0x3db3784d	0.0876318
146	0x3e780fd7	0.24224792
147	0x3d267ccb	0.040646356
148	0x3c6fa83e	0.014627514
149	0x3d842697	0.06452673
150	0x3e4cc0ee	0.19995472
151	0xbcf9fcb5	-0.030516008
152	0xbcc38768	-0.023868278
153	0xbd5de6bc	-0.054175124
154	0x3cf964b5	0.030443529
155	0x3d6bc5a9	0.05756155
156	0xbd25953e	-0.04042553
157	0x3debb4e5	0.11509112
158	0x3c41f154	0.011837322
159	0x3d96521a	0.073398784
160	0x3df84924	0.121233255
161	0x3e2d96d4	0.16952068
162	0xbea4d5b2	-0.32194287
163	0x3df09551	0.1174723
164	0xbdee9573	-0.11649599
165	0xbea44660	-0.32084942
166	0x3e3244c7	0.17409049
167	0xbc524ebd	-0.0128361555
168	0x3e374dd2	0.1790078
169	0xbeb26f64	-0.3485061
170	0xbdd3dad2	-0.10344471
171	0x3db70610	0.08936703
172	0x3e62bdc2	0.221427
173	0xbeaf8b71	-0.34286073
174	0x3e1d850e	0.15382788
175	0xbc0386e0	-0.008027762
176	0xbdaeed80	-0.08541393
177	0x3e9f335d	0.31093875
178	0xbdf2d841	-0.118576534
179	0xbe16162c	-0.14656895
180	0xbd212d00	-0.039349556
181	0xbdc76a66	-0.09737091
182	0x3e122d99	0.14275207
183	0x3d9c7dcb	0.076411806
184	0xbd478c4d	-0.048717786
185	0xbd6b3131	-0.05741996
186	0x3deb9277	0.11502545
187	0x3d4d96c2	0.050192602
188	0x3d5e434f	0.05426341
189	0xbd5b69a4	-0.053567544
190	0xbeb9f756	-0.36321515
191	0x3e5b6e83	0.21428876
192	0xbded1e8a	-0.115780905
193	0xbb993564	-0.004675554
194	0x3e1af7b4	0.15133554
195	0x3e838b84	0.2569238
196	0xbdfb7922	-0.122789636
197	0xbdda4a38	-0.10658687
198	0x3e7003bc	0.23438925
199	0x3e887caf	0.26657626

layers.2.weight f4 [200]
0	0x3f7e1645	0.9925273
1	0x3f7aab8b	0.97918004
2	0x3f6ef0c5	0.93336135
3	0x3f78bca0	0.9716282
4	0x3f839179	1.027877
5	0x3f7b201e	0.9809588
6	0x3f7eb0e9	0.99488693
7	0x3f7f6f7e	0.997795
8	0x3f7bc814	0.9835217
9	0x3f819f54	1.0126748
10	0x3f7781c4	0.9668238
11	0x3f7452ed	0.95439035
12	0x3f7ac4e1	0.97956663
13	0x3f87c9ac	1.060842
14	0x3f83b968	1.0290956
15	0x3f7fd349	0.9993177
16	0x3f7fe6a6	0.99961317
17	0x3f83ed66	1.0306823
18	0x3f7d1155	0.9885457
19	0x3f80e19e	1.0068853
20	0x3f7b5aba	0.9818531
21	0x3f8103bc	1.0079265
22	0x3f767ddf	0.96285814
23	0x3f81d625	1.0143477
24	0x3f7748e4	0.965956
25	0x3f7df1cf	0.99197096
26	0x3f84f377	1.03868
27	0x3f8013c0	1.0006027
28	0x3f7db376	0.9910196
29	0x3f848013	1.0351585
30	0x3f74e4ae	0.9566144
31	0x3f76d838	0.96423674
32	0x3f7e5dc4	0.99361825
33	0x3f7756f9	0.96617085
34	0x3f813cff	1.009674
35	0x3f88d094	1.0688653
36	0x3f81dd89	1.0145732
37	0x3f7ee3df	0.99566454
38	0x3f813b01	1.0096132
39	0x3f7aaca4	0.9791968
40	0x3f7ef38a	0.9959036
41	0x3f7fd997	0.9994139
42	0x3f7d1b64	0.9886992
43	0x3f7a8cfc	0.97871375
44	0x3f7c41ed	0.98538095
45	0x3f6b9f94	0.9204037
46	0x3f6c84a9	0.92389923
47	0x3f79e2d8	0.9761176
48	0x3f7846b6	0.96982896
49	0x3f738abb	0.9513356
50	0x3f876d73	1.0580276
51	0x3f7da466	0.9907898
52	0x3f76a11a	0.9633957
53	0x3f808158	1.0039473
54	0x3f811075	1.0083147
55	0x3f751d24	0.9574759
56	0x3f7aec9b	0.9801728
57	0x3f7ea07a	0.9946362
58	0x3f73f0de	0.9528941
59	0x3f80a514	1.0050378
60	0x3f808700	1.0041199
61	0x3f74ae97	0.955789
62	0x3f74681d	0.95471364
63	0x3f83426d	1.0254647
64	0x3f80e3c8	1.0069513
65	0x3f7fe620	0.9996052
66	0x3f74737b	0.9548871
67	0x3f7e4513	0.9932415
68	0x3f71fe05	0.9452823
69	0x3f7f4d3a	0.99727213
70	0x3f777139	0.9665714
71	0x3f8602ec	1.0469642
72	0x3f7a1c84	0.9769976
73	0x3f80a1a4	1.0049329
74	0x3f7b0282	0.980507
75	0x3f82552b	1.0182241
76	0x3f7f90ea	0.99830496
77	0x3f823b62	1.0174372
78	0x3f7cd8c9	0.9876829
79	0x3f76d204	0.9641421
80	0x3f7f340e	0.99688804
81	0x3f846f79	1.0346519
82	0x3f82ae62	1.0209467
83	0x3f806449	1.0030605
84	0x3f79f00f	0.97631925
85	0x3f8d3ca4	1.1034131
86	0x3f7e195a	0.99257433
87	0x3f810e22	1.0082438
88	0x3f7355f1	0.9505301
89	0x3f81393d	1.0095593
90	0x3f7b2a74	0.98111653
91	0x3f7d33af	0.9890699
92	0x3f7c3e5f	0.9853267
93	0x3f809e97	1.0048398
94	0x3f83203b	1.0244211
95	0x3f740257	0.9531607
96	0x3f7bdcda	0.9838387
97	0x3f79a9ac	0.97524524
98	0x3f81c939	1.0139533
99	0x3f7ab166	0.9792694
100	0x3f81add1	1.013117
101	0x3f7ce22d	0.98782617
102	0x3f8481eb	1.0352148
103	0x3f7c64bb	0.985912
104	0x3f80c8b7	1.0061253
105	0x3f8164ec	1.0108924
106	0x3f7dd46f	0.9915227
107	0x3f7e0f61	0.99242216
108	0x3f7c4fb1	0.985591
109	0x3f7f0e5f	0.99631304
110	0x3f7d3714	0.9891217
111	0x3f80dbb9	1.0067054
112	0x3f82dc8e	1.0223558
113	0x3f832c2a	1.0247853
114	0x3f82d86f	1.02223
115	0x3f80bb5f	1.0057181
116	0x3f7d41cb	0.9892852
117	0x3f80ccb1	1.0062467
118	0x3f790ac3	0.97282046
119	0x3f7fea58	0.99966955
120	0x3f7a86d3	0.97861975
121	0x3f739498	0.9514861
122	0x3f7fa25c	0.99857116
123	0x3f7c802e	0.98633087
124	0x3f7b985e	0.9827937
125	0x3f833129	1.0249377
126	0x3f766431	0.9624663
127	0x3f7f26d2	0.9966861
128	0x3f7b5972	0.9818336
129	0x3f83d8a2	1.0300486
130	0x3f8131a6	1.0093277
131	0x3f79a79f	0.97521394
132	0x3f7fd6f7	0.99937385
133	0x3f747753	0.95494574
134	0x3f76ceb8	0.9640918
135	0x3f84b204	1.0366826
136	0x3f79366f	0.97348684
137	0x3f80d977	1.0066365
138	0x3f83c90a	1.0295727
139	0x3f707f55	0.93944293
140	0x3f809299	1.0044738
141	0x3f812775	1.0090166
142	0x3f73a49e	0.9517306
143	0x3f8054cf	1.0025882
144	0x3f7d7aa6	0.9901527
145	0x3f777dd2	0.9667636
146	0x3f806477	1.003066
147	0x3f636084	0.88819146
148	0x3f7b0272	0.98050606
149	0x3f740b40	0.95329666
150	0x3f818c80	1.0121002
151	0x3f76b3db	0.9636819
152	0x3f85022e	1.039129
153	0x3f8246f4	1.0177903
154	0x3f833a53	1.0252174
155	0x3f779ee2	0.9672681
156	0x3f80515b	1.0024828
157	0x3f7e3715	0.993028
158	0x3f80bc95	1.0057551
159	0x3f80345b	1.0015978
160	0x3f7d5f83	0.98973864
161	0x3f7f9634	0.99838567
162	0x3f7ecb6c	0.9952915
163	0x3f7de1da	0.9917275
164	0x3f7c3acc	0.98527217
165	0x3f7f4f22	0.9973012
166	0x3f7a85ca	0.97860396
167	0x3f745710	0.95445347
168	0x3f7beba0	0.9840641
169	0x3f80c248	1.005929
170	0x3f8b4851	1.0881444
171	0x3f7e6470	0.99372005
172	0x3f7ed581	0.9954453
173	0x3f7888e3	0.9708387
174	0x3f7d063c	0.9883764
175	0x3f7f4ff9	0.99731404
176	0x3f86cf33	1.0531982
177	0x3f838020	1.0273476
178	0x3f8473c6	1.0347831
179	0x3f7923c7	0.97320217
180	0x3f788094	0.97071195
181	0x3f7a7605	0.97836334
182	0x3f7b6468	0.9820008
183	0x3f7d8805	0.99035674
184	0x3f7efb86	0.99602544
185	0x3f816446	1.0108726
186	0x3f81ae55	1.0131327
187	0x3f7e6914	0.99379086
188	0x3f7c65db	0.9859292
189	0x3f7a8f22	0.97874653
190	0x3f7b5e8f	0.9819116
191	0x3f7ea0e6	0.9946426
192	0x3f7b7152	0.9821979
193	0x3f820ad2	1.0159552
194	0x3f7da43e	0.9907874
195	0x3f7cb1e4	0.9870894
196	0x3f7f8038	0.9980502
197	0x3f854150	1.0410557
198	0x3f80d41b	1.006473
199	0x3f75daf2	0.9603721

layers.2.bias f4 [200]
0	0x3db9918e	0.090609655
1	0xbd139b09	-0.036036525
2	0xbd8a8745	-0.06764082
3	0x3d920093	0.07129016
4	0xbc2f52f6	-0.010700932
5	0x3da75582	0.08170606
6	0x3d52e95c	0.05149208
7	0xbd77ff34	-0.060546115
8	0x3c94d410	0.018167526
9	0xbd82ae85	-0.06380943
10	0xbd868513	-0.06568351
11	0xbd9a3ef1	-0.07531536
12	0xbd4b8469	-0.049686823
13	0x3d092aed	0.033488203
14	0x3d944d2e	0.07241283
15	0x3d1d9df2	0.038480707
16	0x3d9deec0	0.077115536
17	0x3db5a57e	0.08869456
18	0xbbbfae6c	-0.00584965
19	0x3d38b27b	0.045092087
20	0x3d570878	0.05249831
21	0x3cb44573	0.022005772
22	0xbd652c74	-0.055950597
23	0xbd52af70	-0.05143684
24	0xbd8663a0	-0.06561971
25	0x3d050bb8	0.03248188
26	0x3d9e6741	0.07734538
27	0xbb4de469	-0.003141666
28	0x3d85c85d	0.06532357
29	0xbcb89779	-0.022533165
30	0xbd018a66	-0.031626128
31	0xbd2c2964	-0.04203166
32	0xbd3a7967	-0.045525935
33	0xbdcbe778	-0.099562585
34	0x3d8ca00d	0.06866465
35	0x3d96f5ce	0.07371102
36	0x3dac9d7f	0.084284775
37	0xbd5dbb3f	-0.05413365
38	0x3cf16ca7	0.029470755
39	0xbcea81c1	-0.028626325
40	0xbc11dfc5	-0.0089034485
41	0x3cf3c96e	0.029759135
42	0xbd0df709	-0.03465942
43	0x3cb25edb	0.021773746
44	0x3c7b2a6c	0.015329938
45	0xbd65d179	-0.05610797
46	0xbd59ec08	-0.053203613
47	0x3d6684e0	0.056279063
48	0xbd0af2e1	-0.033923034
49	0x3d571e07	0.05251887
50	0x3d59885a	0.05310855
51	0x3d88954a	0.066691
52	0xbdb49934	-0.08818284
53	0x3d86786d	0.06565938
54	0x3d11daae	0.03560894
55	0xbcc546d7	-0.02408163
56	0x3dac424d	0.08411083
57	0xbd414c2f	-0.047191795
58	0xbd321434	-0.0434763
59	0x3d88b8f1	0.066759
60	0x3d82c93e	0.0638604
61	0x3ce41b73	0.02784512
62	0x3d78c763	0.060737025
63	0xbc33f198	-0.010982893
64	0x3d7381aa	0.05944983
65	0xbd942d93	-0.07235255
66	0xbd002d01	-0.03129292
67	0xbd9b4fbf	-0.0758357
68	0xbd679a04	-0.056543365
69	0xbd8d7267	-0.06906586
70	0xbd97cff0	-0.07412708
71	0xbd438358	-0.04773268
72	0xbd49d8ea	-0.04927913
73	0x3db23b24	0.087026864
74	0xbd71fa50	-0.059076607
75	0x3d7d9f22	0.06191934
76	0xbd9b0a9b	-0.07570382
77	0xbd85d784	-0.06535247
78	0xbd63b1e6	-0.05558958
79	0xbd4fba96	-0.05071505
80	0xbd6c3c2e	-0.05767458
81	0xbdb8d17b	-0.0902433
82	0x3d9af500	0.07566261
83	0xbd819ca7	-0.06328707
84	0x3d7e19c5	0.062036294
85	0x3e2dbfd9	0.16967715
86	0x3cf249f5	0.029576281
87	0x3dff8531	0.12476576
88	0xbd4d40f0	-0.050110757
89	0x3db56019	0.0885622
90	0xbd264b91	-0.04059941
91	0xbdb2a6d7	-0.087232284
92	0x3bf1ae73	0.0073755323
93	0x3d8b1002	0.067901626
94	0x3da72813	0.081619404
95	0xbdeea8a8	-0.116532624
96	0x3d96928b	0.073521696
97	0xbd8c3309	-0.06845672
98	0x3d906351	0.07050193
99	0xbd0ee53d	-0.034886587
100	0xbd861db5	-0.06548635
101	0xbd9d2ff6	-0.076751634
102	0xbd466287	-0.048433807
103	0xbd3dc012	-0.04632575
104	0x3d50fee7	0.051024344
105	0x3d90deaf	0.070737235
106	0x3daa1dbc	0.08306453
107	0xbd4471ba	-0.04796002
108	0xbd5a39b4	-0.053277686
109	0xbd7f7725	-0.062369484
110	0x3ce35358	0.027749702
111	0xbd5bf958	-0.05370459
112	0x3d474d00	0.048657417
113	0x3d87113f	0.06595086
114	0x3d933cc1	0.07189322
115	0x3d28be72	0.041197248
116	0xbc8a532d	-0.016885364
117	0x3d5b50a0	0.053543687
118	0xbd5e5022	-0.05427564
119	0x3d3a0a6c	0.045420095
120	0xbceb6b76	-0.028737765
121	0xbd4ce908	-0.050026923
122	0xbdb18eca	-0.08669813
123	0xbd8769ae	-0.06611954
124	0xbd80b4fa	-0.062845185
125	0xbd21ef5b	-0.039534908
126	0xbd7729dd	-0.06034266
127	0x3d85226b	0.06500705
128	0x3c9647a3	0.018344706
129	0x3d7c6370	0.06161827
130	0xbd8fa3cb	-0.07013663
131	0xbcefe7d6	-0.029285353
132	0xbcb7079d	-0.022342497
133	0xbd34987c	-0.044090733
134	0x3d8fda43	0.07024052
135	0x3da43de5	0.08019618
136	0xbda6aaf4	-0.081380755
137	0x3d234cd2	0.039868183
138	0x3db72051	0.08941711
139	0xbd2e7990	-0.0425964
140	0x3d81a02f	0.06329381
141	0x3d2e0af3	0.04249091
142	0xbda4b1a2	-0.08041693
143	0x3d843787	0.064559035
144	0xbd8ac3eb	-0.0677565
145	0xbd865a6f	-0.065602176
146	0xbd5cd41c	-0.05391322
147	0xbd241cf5	-0.040066678
148	0xbcda7ffd	-0.026672358
149	0xbd4e3dbc	-0.050351843
150	0x3cc80fa9	0.02442153
151	0xbd7672b0	-0.06016797
152	0x3d2f2cef	0.04276746
153	0x3d60a225	0.054842133
154	0x3d909ef1	0.07061566
155	0xbd6b51fa	-0.057451226
156	0xbd883b8a	-0.06651981
157	0x3d9e7eb5	0.07739011
158	0x3da02c79	0.078209825
159	0xbd734f05	-0.05940153
160	0xbd8e1fbe	-0.06939648
161	0x3d87a2d2	0.066228524
162	0xbbb57232	-0.005537295
163	0x3d82dfcb	0.06390341
164	0x3dae0184	0.08496383
165	0xbd9d5da9	-0.0768388
166	0xbb64b1ca	-0.003489601
167	0xbd4d56b2	-0.050131507
168	0x3d8150fd	0.063142754
169	0x3c094e62	0.008380504
170	0xbd807cf0	-0.0627383
171	0xbd874d32	-0.06606521
172	0xbd7116dc	-0.05885969
173	0xbd9dd1a2	-0.07706
174	0x3a4bdf17	0.00077770784
175	0x3d88985c	0.06669685
176	0x3d88b937	0.06675952
177	0x3d920cb2	0.07131328
178	0x3d60ecc2	0.05491329
179	0xbd7e6564	-0.062108412
180	0xbd432005	-0.047637958
181	0xbd5ae382	-0.053439625
182	0xbc89eccc	-0.016836546
183	0x3d967110	0.07345784
184	0xbd6de8a8	-0.058083206
185	0x3d83c349	0.06433732
186	0x3d9d1a19	0.07670993
187	0x3d37fac2	0.044916876
188	0x3d5eff1f	0.05444252
189	0x3de9888c	0.114029974
190	0xbd24d59c	-0.040242776
191	0xbc6a774b	-0.014310668
192	0xbd3b1797	-0.045676794
193	0x3d619cb7	0.055081096
194	0xbd17fcc7	-0.0371063
195	0x3db983fc	0.09058377
196	0x3d84acee	0.06478296
197	0x3d66cede	0.056349628
198	0x3d86bde9	0.06579191
199	0x3d9b25e7	0.07575589

layers.2.running_mean f4 [200]
0	0x3ee5e378	0.44900107
1	0x3e163a31	0.14670636
2	0x3df97aee	0.1218165
3	0x3e480c26	0.19535884
4	0x3de6a8c7	0.112626605
5	0x3e94bd15	0.29050508
6	0x3e780c16	0.2422336
7	0x3e18b6cb	0.1491348
8	0x3e81c314	0.25344145
9	0x3e12266e	0.14272472
10	0x3eb75703	0.35808572
11	0x3e313b93	0.17307882
12	0x3ed8c259	0.42335775
13	0x3d63385d	0.055473674
14	0x3e14b1e9	0.14520992
15	0x3e98343f	0.2972736
16	0x3e02eafb	0.1278495
17	0x3ec4dc13	0.38449153
18	0x3e3de876	0.18545708
19	0x3e44e063	0.19226222
20	0x3eb44bd7	0.3521411
21	0x3e9d47d3	0.3071886
22	0x3d1c9730	0.03823012
23	0x3db64570	0.08899963
24	0x3e5ac932	0.21365812
25	0x3eef31d5	0.46717706
26	0x3ea8582f	0.3287978
27	0x3d39eb48	0.045390397
28	0x3e860003	0.26171884
29	0x3f0440ea	0.5166155
30	0x3e511e2d	0.20421667
31	0x3e2ef948	0.17087281
32	0x3eaf530e	0.34243053
33	0x3e9e14e7	0.30875322
34	0x3ed489d5	0.41511407
35	0x3debb467	0.115090184
36	0x3eb53a36	0.35395974
37	0x3dc749e1	0.09730888
38	0x3e5f8b58	0.21830499
39	0x3d60cdc4	0.054883733
40	0x3dcba33e	0.09943245
41	0x3e5b1703	0.21395497
42	0x3e3b97c0	0.18319607
43	0x3eac4a32	0.33650357
44	0x3e275948	0.16342652
45	0x3e1355c3	0.14388184
46	0x3dd7d642	0.10538913
47	0x3e72625e	0.23670337
48	0x3eab39a2	0.33442408
49	0x3ee6b687	0.45061132
50	0x3dbba468	0.091622174
51	0x3e16698f	0.14688705
52	0x3dcd7013	0.10031142
53	0x3eafa700	0.34307098
54	0x3e5df66a	0.21676031
55	0x3d802f6d	0.06259046
56	0x3e5183c5	0.20460422
57	0x3eb8893a	0.36042196
58	0x3dd71548	0.10502106
59	0x3e92384a	0.2855857
60	0x3ed856bc	0.42253673
61	0x3e9ec4a8	0.31009412
62	0x3e509705	0.2037011
63	0x3e77aa4f	0.24186061
64	0x3ed0b8a9	0.40765885
65	0x3e0ae5e9	0.13564266
66	0x3e366857	0.1781324
67	0x3df57105	0.119844474
68	0x3eb64804	0.3560182
69	0x3dae70c6	0.085176036
70	0x3e37ab1a	0.17936364
71	0x3d1bf4fe	0.03807544
72	0x3e8c7443	0.2743245
73	0x3dfc46aa	0.123181656
74	0x3cf2a829	0.0296212
75	0x3eae6a07	0.34065267
76	0x3da8503f	0.08218431
77	0x3da1e2c9	0.07904584
78	0x3ee5e158	0.44898486
79	0x3e32227c	0.17395967
80	0x3e0f754d	0.1400959
81	0x3e791a4d	0.24326439
82	0x3edba851	0.42901853
83	0x3d9f3474	0.077736765
84	0x3ea7a692	0.3274427
85	0x3db28693	0.08717074
86	0x3e1abc4e	0.15110895
87	0x3ddbf951	0.10740913
88	0x3d9d60e0	0.07684493
89	0x3ed52b81	0.41634753
90	0x3e622203	0.22083287
91	0x3de2cce4	0.11074236
92	0x3efbc32f	0.4917235
93	0x3e39f215	0.18158753
94	0x3e9e8bbb	0.3096598
95	0x3e9b726a	0.30360729
96	0x3f066742	0.5250131
97	0x3e430004	0.19042975
98	0x3e9c87d3	0.30572376
99	0x3de1c03a	0.110229924
100	0x3e7cadc8	0.24675667
101	0x3e985ece	0.2975983
102	0x3e0bb4df	0.13643216
103	0x3e0e5bcb	0.13902204
104	0x3e9144d0	0.28372812
105	0x3e93bf00	0.2885666
106	0x3ecc8221	0.3994303
107	0x3eaf7e6c	0.3427614
108	0x3e863a7d	0.26216498
109	0x3e7d9b95	0.24766381
110	0x3e7d8588	0.2475797
111	0x3e7de532	0.24794462
112	0x3ebb83c2	0.3662396
113	0x3e9b16b7	0.30290768
114	0x3ece263c	0.40263546
115	0x3ed45754	0.41472876
116	0x3e17d978	0.14829051
117	0x3ea20806	0.31646746
118	0x3e29e999	0.16593017
119	0x3e650734	0.22366029
120	0x3d97474d	0.073866464
121	0x3e8afbe8	0.27145314
122	0x3dafcfac	0.08584532
123	0x3e2e0d55	0.16997273
124	0x3e441d90	0.19151902
125	0x3c4cee7a	0.012508029
126	0x3e1e5199	0.15460815
127	0x3e70e840	0.23526096
128	0x3e60eeaa	0.21966043
129	0x3eba0e0c	0.36338842
130	0x3ee4c55a	0.44681817
131	0x3db69928	0.08915931
132	0x3ed6b4c3	0.41934785
133	0x3e61c0a5	0.22046144
134	0x3e4f43b2	0.20240667
135	0x3eb96c96	0.36215657
136	0x3e7a1270	0.24421096
137	0x3dc7556a	0.09733088
138	0x3ef3b414	0.47598326
139	0x3e1a04d5	0.15040906
140	0x3ed12859	0.40851095
141	0x3e5377f6	0.2065123
142	0x3dc0ad64	0.09408072
143	0x3ef1f4cf	0.47257087
144	0x3d8f8a42	0.070087925
145	0x3e2254e2	0.15852693
146	0x3e9f388f	0.31097838
147	0x3e15b4ac	0.14619702
148	0x3e6a9ee0	0.22912169
149	0x3e40cd36	0.18828282
150	0x3ea37f6d	0.31933156
151	0x3e80215f	0.2502546
152	0x3e367a52	0.17820099
153	0x3ec83714	0.3910452
154	0x3e75e086	0.2401143
155	0x3e66ef58	0.2255224
156	0x3e0f5678	0.13997829
157	0x3ee17653	0.44035587
158	0x3e96fe63	0.29490957
159	0x3e47105c	0.19439834
160	0x3e5f4953	0.21805315
161	0x3e8696a4	0.26286805
162	0x3d3a58be	0.045494787
163	0x3e970ace	0.2950043
164	0x3e63abc7	0.22233497
165	0x3d0326f1	0.03201956
166	0x3e35eb74	0.177656
167	0x3e12fc03	0.14353947
168	0x3e82f471	0.2557712
169	0x3cef5f10	0.029220134
170	0x3d118d87	0.03553536
171	0x3e8916e6	0.26775283
172	0x3e52735c	0.20551819
173	0x3d6d95e3	0.05800427
174	0x3e45169e	0.19246909
175	0x3ec14cc3	0.37753877
176	0x3dcd6cc3	0.1003051
177	0x3ea4848c	0.32132375
178	0x3e48879a	0.19582978
179	0x3e4d48e7	0.20047341
180	0x3d58f48b	0.05296759
181	0x3e4acd2c	0.1980483
182	0x3ea2d1ed	0.31800786
183	0x3e9b2453	0.3030115
184	0x3e4537a3	0.19259505
185	0x3e2ae4aa	0.16688791
186	0x3e9757ba	0.29559118
187	0x3ea7a169	0.32740334
188	0x3e848c2f	0.25888202
189	0x3d9f20e3	0.077699445
190	0x3d326326	0.043551587
191	0x3e4248a4	0.18973023
192	0x3dd01eaf	0.101621024
193	0x3e786932	0.24258879
194	0x3e60322d	0.2189414
195	0x3ebfa8ad	0.37433377
196	0x3e7e3761	0.24825813
197	0x3e485907	0.19565211
198	0x3ec8152e	0.3907866
199	0x3ed2fafb	0.41207108

layers.2.running_var f4 [200]
0	0x3d653abe	0.055964224
1	0x3dae94b7	0.08524459
2	0x3d78204f	0.060577687
3	0x3dcfc52f	0.10145032
4	0x3dced460	0.10099101
5	0x3e0469ff	0.1293106
6	0x3d60864e	0.054815583
7	0x3ddbcb70	0.10732162
8	0x3e2477f9	0.16061391
9	0x3e00b9da	0.12570897
10	0x3e5d68a0	0.21621943
11	0x3dda0599	0.10645599
12	0x3e5c2b55	0.21500905
13	0x3d0c2b0d	0.034220744
14	0x3d787aeb	0.0606641
15	0x3d97e466	0.074166104
16	0x3d368d39	0.044568274
17	0x3e2da4ed	0.16957445
18	0x3e31002d	0.17285223
19	0x3d9b3ec9	0.07580335
20	0x3d998388	0.07495791
21	0x3e12ba43	0.14328866
22	0x3ce414ad	0.02784189
23	0x3dabe31f	0.08392929
24	0x3e2cea21	0.16886188
25	0x3e5675a4	0.20943314
26	0x3dab2126	0.08355932
27	0x3d5c4345	0.05377509
28	0x3e0177a1	0.12643291
29	0x3ea676d0	0.32512522
30	0x3e0be6e0	0.1366229
31	0x3c9977c7	0.018733872
32	0x3e75c888	0.24002278
33	0x3e512270	0.20423293
34	0x3e51d699	0.20492019
35	0x3dd56aed	0.10420785
36	0x3dd98b32	0.106222525
37	0x3db477bb	0.08811899
38	0x3dc097c1	0.09403945
39	0x3d3f374f	0.046683606
40	0x3d335a7f	0.043787476
41	0x3c974b2e	0.018468466
42	0x3dd332ba	0.1031241
43	0x3e33fc1d	0.17576642
44	0x3ddfda79	0.10930342
45	0x3e00aeb4	0.12566644
46	0x3e0d6c6c	0.13810891
47	0x3de72833	0.11286964
48	0x3e54d86a	0.2078568
49	0x3e214f83	0.15752988
50	0x3dbf3f75	0.09338275
51	0x3d8982a1	0.067143686
52	0x3d6f467d	0.058416832
53	0x3d86c762	0.06580998
54	0x3dadc00e	0.08483897
55	0x3d81566d	0.063153125
56	0x3d8010b5	0.062531866
57	0x3e75e17e	0.240118
58	0x3dad7757	0.08470028
59	0x3d07143e	0.03297829
60	0x3e10e0fb	0.14148323
61	0x3e1b0275	0.15137656
62	0x3ddb7bc0	0.10716963
63	0x3ce69961	0.028149309
64	0x3e596f9e	0.21233985
65	0x3da5fd84	0.08104995
66	0x3d936b2a	0.07198174
67	0x3dc4a14e	0.09601079
68	0x3e183d9b	0.1486725
69	0x3d598ff5	0.053115804
70	0x3df4447c	0.11927125
71	0x3c797d22	0.015227588
72	0x3e3e2bd7	0.18571411
73	0x3ce40e7f	0.027838944
74	0x3c36dccd	0.011161041
75	0x3d63a87a	0.055580594
76	0x3d5c1ef8	0.05374047
77	0x3d820984	0.06349471
78	0x3e907e20	0.28221226
79	0x3d9a4721	0.07533098
80	0x3dc3dcec	0.09563622
81	0x3e3815e6	0.17977104
82	0x3e79ece9	0.2440678
83	0x3d7f92bd	0.0623958
84	0x3e13baa9	0.14426674
85	0x3d894b24	0.06703785
86	0x3d4bd48d	0.04976325
87	0x3d0ddc5d	0.034633983
88	0x3d30432d	0.043032814
89	0x3de02b91	0.1094581
90	0x3dcfda83	0.101491
91	0x3d93cf26	0.07217245
92	0x3eb16fc7	0.34655592
93	0x3d4be052	0.049774475
94	0x3df107f3	0.11769094
95	0x3dff29f1	0.124591716
96	0x3e0b8360	0.13624334
97	0x3e284190	0.1643126
98	0x3da11a64	0.07866362
99	0x3e0729cb	0.13199537
100	0x3e0b6a91	0.1361487
101	0x3e172a78	0.14762294
102	0x3d5cc3cd	0.053897668
103	0x3daa9727	0.08329611
104	0x3e063c14	0.13108855
105	0x3db4561a	0.08805485
106	0x3de5abd1	0.11214412
107	0x3e7022dc	0.23450798
108	0x3e2b3f61	0.16723396
109	0x3e7cce78	0.24688137
110	0x3dea3448	0.11435753
111	0x3e11f1ed	0.14252444
112	0x3e19e713	0.15029554
113	0x3e280628	0.16408598
114	0x3e301b2c	0.17197865
115	0x3e4b1b2e	0.19834587
116	0x3e00817a	0.12549391
117	0x3dfa19de	0.12211965
118	0x3dfcd466	0.12345199
119	0x3dc1de26	0.094661996
120	0x3d83b835	0.06431619
121	0x3e3af07a	0.18255797
122	0x3d813cee	0.063104495
123	0x3dce5ab8	0.10075897
124	0x3e0b99b0	0.13632846
125	0x3b953848	0.0045538284
126	0x3d9b12c4	0.07571939
127	0x3d8c2122	0.06842257
128	0x3ddbcf52	0.107329026
129	0x3e0e08fc	0.13870615
130	0x3e9f1504	0.3107072
131	0x3d8fe16a	0.07025416
132	0x3e82d922	0.25556284
133	0x3e18ad94	0.14909965
134	0x3dde111d	0.10843108
135	0x3d14164d	0.03615408
136	0x3e139cb9	0.14415254
137	0x3d44de52	0.048063584
138	0x3da62aaf	0.0811361
139	0x3e02fbe8	0.12791407
140	0x3d2585f1	0.04041094
141	0x3dd50b2f	0.10402524
142	0x3d772ecd	0.060347367
143	0x3e5b03cb	0.21388166
144	0x3d17ca9f	0.03705847
145	0x3e0050e6	0.1253086
146	0x3e737033	0.2377327
147	0x3ddbf5b4	0.107402235
148	0x3e0b560f	0.13607047
149	0x3dc27f77	0.09496968
150	0x3d1d644a	0.03842572
151	0x3e0a0713	0.13479261
152	0x3d893145	0.066988505
153	0x3e5c2d81	0.21501733
154	0x3de865a8	0.113475144
155	0x3e085e8f	0.13317321
156	0x3db90297	0.09033697
157	0x3db43cea	0.08800681
158	0x3e1352a3	0.14386992
159	0x3de23a56	0.11046283
160	0x3e1000bc	0.1406278
161	0x3daa17c6	0.08305316
162	0x3d41a87c	0.04727982
163	0x3df18301	0.11792565
164	0x3d5d80ac	0.05407779
165	0x3cc48fb8	0.023994312
166	0x3da59fa7	0.08087092
167	0x3d7f3a56	0.062311493
168	0x3da5ff53	0.0810534
169	0x3c7fc0dd	0.015609947
170	0x3bcd7069	0.006269504
171	0x3e3306f2	0.17483118
172	0x3da19718	0.07890147
173	0x3d2fd723	0.04292978
174	0x3e02b50a	0.12764373
175	0x3dcea127	0.10089331
176	0x3df17295	0.11789433
177	0x3dad8412	0.08472456
178	0x3dcd9fe9	0.10040266
179	0x3e153ed7	0.14574753
180	0x3d132f2f	0.03593367
181	0x3dcea5fe	0.10090254
182	0x3e735076	0.23761162
183	0x3d9db0eb	0.0769976
184	0x3e47d913	0.19516401
185	0x3d84fdfb	0.064937554
186	0x3dd4bc2b	0.10387453
187	0x3de204f3	0.110361
188	0x3e1e5582	0.15462306
189	0x3d2074d5	0.03917392
190	0x3d477089	0.048691306
191	0x3d8595ca	0.065227106
192	0x3dbefa10	0.093250394
193	0x3de01e3a	0.10943265
194	0x3de716d5	0.11283652
195	0x3d8e1bde	0.06938909
196	0x3def0265	0.116703786
197	0x3d8c61ba	0.06854577
198	0x3d3bd918	0.045861334
199	0x3e0ba193	0.13635854

layers.4.weight f4 [100, 200]
0	0xbd2a7f61	-0.041625384
1	0x3db3537a	0.08756156
2	0xbc8a54b3	-0.01688609
3	0x3d62377b	0.05522869
4	0x3d9dd32b	0.07706293
5	0xbad85046	-0.0016503416
6	0xbd4aa567	-0.049474146
7	0x3d0e183e	0.034691088
8	0x39bb53c0	0.00035729818
9	0xbd18c11f	-0.03729355
10	0x3cda9f05	0.026687155
11	0x3d0cfdd0	0.034421742
12	0x3b3abaca	0.0028492683
13	0x3d24e7c5	0.040260095
14	0xbcb3df3d	-0.021957034
15	0xbdb912f1	-0.09036816
16	0xbdf397c4	-0.11894181
17	0xbcd8b1cd	-0.02645197
18	0xbd56c853	-0.052437138
19	0xbd0f5a4f	-0.034998234
20	0x3d32d0e7	0.043656256
21	0x3c398fa2	0.011325749
22	0x3ca046b5	0.019564966
23	0xbc4bb9eb	-0.012434463
24	0x3d68bf25	0.056822915
25	0xbd6a6261	-0.057222728
26	0x3c8f0606	0.017458927
27	0x3d0e6c49	0.034771238
28	0x3c69cee4	0.014270518
29	0x3d9e0ef7	0.07717698
30	0xbdb3b9a2	-0.08775641
31	0xbd11367f	-0.035452362
32	0xbd543d5a	-0.051816322
33	0x3c37f88a	0.01122869
34	0x3c1497bf	0.009069382
35	0x3cc798c5	0.024364838
36	0xbdfc8db8	-0.12331718
37	0x3d202b6d	0.039103914
38	0xbdbed169	-0.093172856
39	0x3d170671	0.036871377
40	0x3df897c2	0.121383205
41	0x3d055ad3	0.03255732
42	0x3d0d161c	0.034444913
43	0x3d11c212	0.03558547
44	0xbc328442	-0.0108957905
45	0x3d646ca9	0.05576769
46	0xbc060d0c	-0.008181822
47	0x3c92ece1	0.017935218
48	0x3d899193	0.06717219
49	0x3d93ce2d	0.07217059
50	0x3c593bde	0.013258902
51	0x3ceb1fb6	0.028701644
52	0x3d54b9ff	0.051935192
53	0x3cf53d68	0.029936507
54	0x3d3f487e	0.046699993
55	0x3cb4a1bf	0.022049783
56	0xbdf5bc56	-0.11998813
57	0x3e054c07	0.13017283
58	0xbd155c63	-0.03646506
59	0x3c643815	0.013929387
60	0xbd98e666	-0.0746582
61	0x3d7205f8	0.059087723
62	0x3d03db52	0.032191582
63	0x3d254aa2	0.04035438
64	0x3dfea450	0.12433684
65	0x3bd2dde9	0.006435145
66	0x3d501e12	0.050809927
67	0x3d81862b	0.06324419
68	0xbbeb7d69	-0.007186581
69	0x3cf837e0	0.03030008
70	0x3c1ac79d	0.009447006
71	0xbe23e331	-0.16004635
72	0xbd60432a	-0.054751553
73	0x3d47f221	0.048814896
74	0x3d932453	0.07184663
75	0xbcba4a3a	-0.022740472
76	0xbb84c76a	-0.0040520923
77	0x3d3c0acb	0.04590873
78	0xbd0e1a2d	-0.034692932
79	0xbb4ca70e	-0.0031227502
80	0xbd3ef54b	-0.04662065
81	0x3d1db31e	0.038500898
82	0xbdcc1410	-0.09964764
83	0x3ba8de55	0.005153457
84	0x3d4d316d	0.050095964
85	0xbaa9a2a1	-0.0012942144
86	0xbce0515f	-0.02738255
87	0xbdfc53e7	-0.123206906
88	0x3d80d2ba	0.06290193
89	0xbd73685d	-0.0594257
90	0xbce4829a	-0.027894307
91	0xbcd441cb	-0.025910279
92	0xbd9f6578	-0.077830255
93	0xbc9bf394	-0.019037046
94	0xbd7e0f3c	-0.062026247
95	0x3bc9c814	0.0061578844
96	0x3d44f188	0.048081905
97	0x3c986a8d	0.018605495
98	0xbd898f1b	-0.06716748
99	0xbd59e5ff	-0.053197857
100	0x3d451876	0.04811903
101	0xbad55553	-0.0016276039
102	0xbb9a711f	-0.004713192
103	0x3c48e4b6	0.01226156
104	0x3bf1fa96	0.0073846085
105	0xbd8690fd	-0.06570623
106	0xbc766688	-0.015039094
107	0xbcafab0f	-0.021443872
108	0xbbb8f8b5	-0.0056448826
109	0xbd13ad54	-0.03605397
110	0x3d273df0	0.040830553
111	0xbaa9dee8	-0.0012960108
112	0xbce5485e	-0.027988609
113	0x3cda65ff	0.026659964
114	0x3d3168a7	0.043312695
115	0x3db25929	0.08708412
116	0x3d6f316f	0.058396753
117	0xbdef4f35	-0.116850294
118	0x3ccdccf4	0.025122143
119	0xbddc64d9	-0.10761423
120	0xbd294a3c	-0.04133056
121	0x3cfa5982	0.030560259
122	0x3cf392dc	0.029733114
123	0xbc9292c0	-0.017892241
124	0x3cb519ac	0.022106968
125	0x3d825e85	0.063656844
126	0x3d40a5f8	0.04703328
127	0xbd54a5b4	-0.05191584
128	0xbe1f8a0f	-0.15580009
129	0x3d01dcce	0.031704716
130	0x3d7fc9f3	0.062448453
131	0x3c8e9029	0.017402725
132	0xbd993853	-0.07481446
133	0x3c633b1e	0.013869075
134	0xbd0bbfeb	-0.034118574
135	0xbdf2109e	-0.11819576
136	0xbceb6646	-0.028735291
137	0xbd8d09c0	-0.06886625
138	0xbde42ac0	-0.111409664
139	0x3d7be106	0.061493896
140	0x3d1e7a36	0.03869077
141	0xbce98b4a	-0.028508801
142	0xbc179f04	-0.009254221
143	0x3ddc5305	0.10758022
144	0x3d6670ec	0.056260034
145	0xbd05a3b1	-0.03262681
146	0x3da7622a	0.0817302
147	0xbcb9d897	-0.022686286
148	0x3d858c70	0.06520927
149	0xbc11a24b	-0.008888791
150	0x3c8eadc1	0.017416837
151	0x3d8d3bbe	0.068961605
152	0xbb4a4f00	-0.0030869842
153	0x3c05e0e2	0.008171292
154	0x3d489f50	0.048980057
155	0x3cd9fe0d	0.026610399
156	0x3a55c235	0.0008154244
157	0xbc8cec31	-0.017202469
158	0x3e030721	0.12795688
159	0x3d05e06b	0.032684725
160	0xbd45212b	-0.048127335
161	0xbe1b661e	-0.15175673
162	0x3d97a651	0.07404769
163	0xbcf86ad7	-0.030324383
164	0xbd71e53f	-0.059056517
165	0x3cb246d1	0.021762284
166	0x3d34d9e8	0.044153124
167	0xbcb5de23	-0.02220065
168	0xbd8c40e6	-0.06848316
169	0x3d2dec01	0.0424614
170	0x3cbed52e	0.023295011
171	0x3d3e1a79	0.046411965
172	0xbc7f0af6	-0.015566578
173	0xbd34ed17	-0.04417142
174	0x3c9e7448	0.019342557
175	0xbd8af447	-0.067848735
176	0x3d4abd40	0.04949689
177	0xbc9f5431	-0.019449325
178	0x3d1185cf	0.035528
179	0x3dac6ed9	0.0841958
180	0xbd966452	-0.07343353
181	0x3cec6574	0.02885697
182	0xbd17d510	-0.037068427
183	0xbd38255f	-0.044957515
184	0xbd3b51cb	-0.0457323
185	0x3cf15f96	0.029464524
186	0x3c4ab21d	0.012371567
187	0xbca9ca63	-0.020726388
188	0xbd81e26a	-0.06342013
189	0xbc35c5df	-0.011094539
190	0x3c533d1b	0.012892987
191	0x3b0b8abe	0.0021292414
192	0xbb1cebfb	-0.0023944366
193	0x3cb44e41	0.02200997
194	0x3b94a210	0.004535921
195	0xbd751f5d	-0.059844363
196	0x3c816457	0.015794916
197	0xbd7de841	-0.061989073
198	0xbd418e97	-0.047255125
199	0x3d506dea	0.050886072
200	0xbc988183	-0.018616443
201	0x3d164c83	0.03669406
202	0x3d1d45e4	0.03839673
203	0x3c658978	0.014009826
204	0x3c114eb0	0.008868858
205	0xbc876a4a	-0.016530175
206	0x3bc46bb9	0.005994287
207	0x3df093ac	0.11746916
208	0x3d3c40ad	0.045960117
209	0x3cbc925e	0.023019012
210	0x3d938747	0.072035365
211	0xbc35d8e5	-0.011099075
212	0x3cb92466	0.022600364
213	0x3c6e27e0	0.014535874
214	0x3cbccf83	0.023048168
215	0xbda6433e	-0.08118294
216	0xbdb4367a	-0.08799453
217	0x3ceb29fa	0.02870654
218	0x3cb437c3	0.021999246
219	0xbdbd3f5a	-0.09240599
220	0xbda4162c	-0.080120414
221	0x3c1a2fba	0.009410793
222	0x3d1c9054	0.03822358
223	0xbc53013d	-0.012878713
224	0xbc9f8def	-0.019476859
225	0x3af07614	0.0018345737
226	0xbda1842f	-0.0788654
227	0x3d56e8dd	0.05246817
228	0xbd69ebfb	-0.057109814
229	0xbcb6b861	-0.022304716
230	0xbbe1ae8f	-0.006887264
231	0xbd54e5a0	-0.0519768
232	0x3c7fcd45	0.015612905
233	0xbc7553ff	-0.0149736395
234	0xbd1724e3	-0.036900412
235	0x3c95c353	0.018281614
236	0xbd49105a	-0.04908786
237	0x3d3bc740	0.045844316
238	0xbd3e0232	-0.046388812
239	0xbcf48da2	-0.029852692
240	0x3d11a2e0	0.03555572
241	0x3c95ae9d	0.018271739
242	0xbbf6468f	-0.0075157355
243	0xbdd7b2b4	-0.10532132
244	0xbc983770	-0.018581122
245	0x3d993ed4	0.07482687
246	0x3d856265	0.06512908
247	0xbc59444b	-0.013260911
248	0x3c162ef7	0.009166471
249	0x3bb733f8	0.005590912
250	0xbc37f9d7	-0.011229
251	0x3bd4428a	0.0064776586
252	0xbd1f970f	-0.03896242
253	0xbd54c1ac	-0.051942512
254	0x3d81020c	0.062992185
255	0xbcec7a06	-0.028866779

layers.4.bias f4 [100]
0	0xbda523cb	-0.080634676
1	0x3d43c9dc	0.04779993
2	0xbbc51421	-0.0060143624
3	0x3d372791	0.044715468
4	0xba667b55	-0.00087921816
5	0x3df3a7d1	0.11897243
6	0xbdb88d00	-0.090112686
7	0x3e0eaefe	0.13933942
8	0xbd3e5c64	-0.04647483
9	0x3d19765b	0.03746639
10	0x3e0330ac	0.12811536
11	0xbd6f65f1	-0.05844683
12	0x3dccec1b	0.10005971
13	0x3e1dbbca	0.15403667
14	0x3dbdf55d	0.09275315
15	0xbe1cf684	-0.15328413
16	0x3d9c743d	0.07639358
17	0x3e200416	0.15626559
18	0xbdafd451	-0.08585418
19	0x3ca926a0	0.0206483
20	0xbe066b7d	-0.13126941
21	0xbda1e670	-0.079052806
22	0xbdf8e826	-0.12153654
23	0x3e44b7dc	0.19210762
24	0x3dc05a40	0.09392214
25	0xbdee35bf	-0.11631345
26	0x3e735535	0.23762973
27	0x3c0b224b	0.008492063
28	0x3e23b4b0	0.15986896
29	0x3e56cdfc	0.20977014
30	0x3d345334	0.04402466
31	0xbdb9629f	-0.090520136
32	0x3e2ccd28	0.16875136
33	0x3dfeb0ed	0.1243609
34	0xbdf429e3	-0.11922052
35	0xbdfa5a4c	-0.12224254
36	0x3c185244	0.009296957
37	0xbdaeba94	-0.08531681
38	0x3cf1989e	0.029491719
39	0xbd0b16e2	-0.03395737
40	0xbb160924	-0.0022893632
41	0xbbb660ca	-0.0055657374
42	0x3e4b9763	0.19881968
43	0x3e02dd75	0.12779792
44	0x3e217a5a	0.1576933
45	0x3d21bc23	0.03948606
46	0xbdfe8d14	-0.12429252
47	0xbb909203	-0.004411937
48	0x3e0346f0	0.1282003
49	0x3b65e477	0.0035078803
50	0xbde6ae32	-0.11263694
51	0xbd58eb07	-0.052958515
52	0xbdf71944	-0.12065366
53	0xbceb1b2d	-0.028699482
54	0xbd05c664	-0.032659903
55	0xbdca30ff	-0.098726265
56	0x3da9f131	0.08297957
57	0x3d251a1f	0.040308114
58	0xbe50c14a	-0.20386234
59	0xbd4c5248	-0.049883157
60	0x3d490802	0.049079902
61	0x3e155339	0.14582528
62	0x3df709af	0.12062394
63	0x3da7cc55	0.0819327
64	0xbd1afab7	-0.037836757
65	0x3c25636d	0.010094506
66	0xbda5e519	-0.081003375
67	0xbdf2b4e1	-0.11850906
68	0x3e282a88	0.16422474
69	0x3e1f5434	0.15559465
70	0x3e0cc2f4	0.13746244
71	0x3e19388e	0.1496298
72	0x3db73782	0.08946134
73	0x3e0aca31	0.13553692
74	0x3e1dd554	0.1541341
75	0x3dc44592	0.09583582
76	0xbd98419a	-0.074343875
77	0x3e119069	0.14215244
78	0x3e439fff	0.19104002
79	0xbddc70d5	-0.107637085
80	0x3e3e773b	0.1860017
81	0x3c51ae30	0.012797877
82	0x3dc60d74	0.09670535
83	0xbe2bc968	-0.16776049
84	0x3e11a246	0.14222059
85	0x3e4a160f	0.19734977
86	0x3ba98e24	0.005174415
87	0x3e0265c7	0.12734137
88	0xbdf13601	-0.117778786
89	0xbc836e03	-0.016043669
90	0x3dca4189	0.09875781
91	0xbd1f7459	-0.038929317
92	0x3e62a856	0.22134528
93	0x3d9d61c7	0.07684665
94	0x3e1ba049	0.15197863
95	0x3e06cffd	0.13165279
96	0xbdc63798	-0.096785724
97	0x3dee58c8	0.116380274
98	0x3e1804a7	0.14845525
99	0x3df194a7	0.11795931
